1099371_1dconv_reg.pt (torch_old, 130143 bytes, 7 tensors)

weight f4 [150, 8, 1]
00000000: c2cf 9cc0 537b 873f 23fa 6440 3d59 913f
00000010: c526 4ac0 4152 e0bf 3102 d03f f8a1 7f3f
00000020: c41b 63c0 7be7 2b3f ab09 0140 7d14 283d
00000030: a374 d93d 37c5 88bf bdab 2b40 0347 f93e
00000040: e7fd ccbf 5216 c03e 6f75 623f 7dfc ea3e
00000050: 3e61 a3bf a272 f2be dc03 94bd d5de 2b3f
00000060: 5382 15c0 ef6d 093c efe8 c83f 164c 243f
00000070: 60fd 0abf 7687 febf 62d9 d33f 7d3e c53e
00000080: 867c 273e d2a2 18be 6aed 463e 8a31 9abe
00000090: a865 da3d fc15 09be b602 493e dc0a 57be
000000a0: a2aa 90be b680 97be 9987 af3e cc3a 55be
000000b0: 4589 f43d 2e4e 6abe 26a8 08bd 6c11 9cbe
000000c0: 0816 14bf d192 db3b 2ad6 b93e 5cf2 19bc
000000d0: 717a 27be 3340 72be 7694 793e 7d03 903b
000000e0: 5fb6 333e 1f70 3f3e 99f7 3a3e 6c64 a8be
000000f0: df8b 80bd e008 ae3c 17bc 10be 8c52 7b3e
00000100: e0b9 c9bd d047 a43e dc58 853e 0bc4 88be
00000110: 05d1 4bbe a0d2 f43c f3a6 c73d 7fa9 793e
00000120: cb67 3cc0 7bfc 1c3f 5ddb e93f adfe 963f
00000130: 452b 87c0 199d c3bf b692 d9bd a277 983f
00000140: c6da 94bd 990d 5f3e 005e 763e 1f0b a1be
00000150: e9da 30be 3f1d 163d df9c 063d 4ded 383e
00000160: 3e20 c0be 1abe db3d d066 d33e 432a 36bf
00000170: 81d4 c53d bfed 4a3f 7099 173f 56a8 2b3e
00000180: 992c a8be 6c5c 513e d4ba 033e 86f3 28be
00000190: c333 e93c f989 90be dca8 903e a6df 8c3e
000001a0: 03b0 81be 2c49 78bc d751 863e b3d6 c1bc
000001b0: 8ead ae3e ab9f 5fbe 1ff1 603d 1085 98be
000001c0: 55b8 9fc0 4cff 593f ea31 5640 1ab8 b53f
000001d0: 8acd 15c0 a1d2 5ac0 2258 2340 45ff 973f
000001e0: 8f82 2dbe 024d 3b3e 7518 eabd 91bf 0cbe
000001f0: 92b6 5dbe 4e04 9cbd 0a10 f13d 5a77 2bbe
00000200: 2cc8 5ac0 1f25 153f 2300 d43f 5c4d 0c3d
00000210: 552c 1dbf d53b 8cbd 694d 233f 2200 013f
00000220: eb16 fdbf c2b8 8ebc 8be1 813f c432 5b3f
00000230: 8632 51c0 dd3a a0bf 091e 203e 912f f03e
00000240: 2aeb 863f d317 adbe 2353 2fbf a6df c53e
00000250: 2989 be3d 1838 42bf f939 abbe cddc acbd
00000260: b915 55c1 4114 2440 9f7a db40 6ccb 323e
00000270: acbe 85c0 e97b 14be 5a2e 6740 7d3a f33f
00000280: 12cf 2e3e 1490 fc3d b55d 883e f5f9 a2be
00000290: 4a93 453e 6c34 53be 6855 5d3d 5efe 513e
000002a0: 3119 b13e a09e dcbc a06a 46bd 7fd7 9ebe
000002b0: 8e59 593e 188a bfbd 78be 78bd a056 863d
000002c0: 02fe c6c0 d58b 9b3f 9792 6b40 2487 d43f
000002d0: b8a0 bdc0 8a4f 9bbf 923c 90be 42f0 683f
000002e0: ad0d 0bc1 e9c5 e03f 9f97 9440 4e77 4b3e
000002f0: 2054 33c0 6bd6 9dbe 6068 3540 72a8 9c3f
00000300: a19a 50c1 e6ea 4640 5a1b c740 6123 a63e
00000310: c0e4 83c0 8a3d 81be 91b1 6740 e6f1 f43f
00000320: 8895 84be 6b76 b53d 2327 8ebe 17fa 34be
00000330: 989b 223e d8e6 7fbe fffa a13e e027 9e3e
00000340: b813 8bc0 63bd 6d3f e833 2640 1a23 ec3f
00000350: 3b58 b3c0 19a4 3ac0 9e2c 1f3e e406 723f
00000360: f583 5dc0 4239 d23e 4024 ea3f fd45 7c3f
00000370: 179e 85c0 eea9 9ebe 19df d0be 31cf 363f
00000380: 0dd4 a9c0 847f b83f 3914 2340 5c92 943e
00000390: 02f6 3bc0 134c aa3d 4cda 873e cc7f 963f
000003a0: bc36 a53e 28a5 bd3d bfc9 77be 2399 f2bd
000003b0: 6e1f 90be cebc c13c d80f 2d3d a92c 60be
000003c0: da5f 2240 b532 85be 05c6 a7bf 25b8 913e
000003d0: 7527 d63e 1b2e 92be a93d 1fbf 0674 983d
000003e0: cd0f 783f b8d1 bebe 1b1c 6dbf 4bea a73f
000003f0: 1f2a dd3f 75d9 54c0 afb7 06c0 dc71 c8be
-4.900361 1.058451 3.5777671 1.1355358 -3.1586163 -1.7525102 1.6250669 0.9985652
-3.5485697 0.67150086 2.016215 0.041035164 0.1061795 -1.0685185 2.682357 0.4868699
-1.6014985 0.3751703 0.8846044 0.45895758 -1.2764051 -0.47353083 -0.072272986 0.6713689
-2.3360794 0.008388027 1.5696086 0.641786 -0.5429287 -1.9885089 1.6550715 0.38524237
0.16356096 -0.14905861 0.19426504 -0.3011592 0.10663921 -0.13387293 0.1962994 -0.21000236
-0.28255183 -0.29590386 0.3428314 -0.2082321 0.119402446 -0.22881386 -0.033363484 -0.30482042
-0.57846117 0.0067008515 0.36296207 -0.009396162 -0.16355301 -0.23657303 0.2437304 0.004394947
0.17550038 0.18695115 0.18258514 -0.32889116 -0.06276678 0.021244466 -0.1413425 0.24543208
-0.09849906 0.3208604 0.26044357 -0.2671207 -0.19903953 0.02988559 0.0974864 0.24381064
-2.943835 0.61322755 1.8270069 1.1796471 -4.224032 -1.5282317 -0.10623686 1.1911509
-0.0726829 0.21782531 0.24059296 -0.31453797 -0.17271008 0.036648985 0.032864448 0.18059273
-0.375246 0.10729618 0.41289377 -0.71158236 0.096596725 0.7926902 0.592185 0.16763434
-0.32846525 0.20445412 0.12864238 -0.16499147 0.028467065 -0.28230265 0.2825383 0.2751438
-0.253296 -0.015154164 0.26234314 -0.023661947 0.34116787 -0.21838252 0.05491745 -0.2978902
-4.9912515 0.8515518 3.3467965 1.4196808 -2.34067 -3.4191058 2.5522542 1.1874777
-0.16944335 0.18291095 -0.11430446 -0.13744952 -0.21651676 -0.076180086 0.11770637 -0.16744748
-3.4184675 0.5825977 1.6562542 0.034253463 -0.6139577 -0.068473496 0.63789994 0.5039083
-1.9772619 -0.017422084 1.0146955 0.8562434 -3.2687087 -1.2517964 0.15636458 0.4691129
1.0540516 -0.3380724 -0.6848623 0.38647193 0.09303505 -0.7586684 -0.33442667 -0.08440552
-13.317803 2.5637362 6.8587184 0.17460412 -4.1795254 -0.14500393 3.612204 1.9002224
0.17071179 0.12332168 0.26633993 -0.31831327 0.19294468 -0.20625466 0.054036528 0.2050719
0.34589532 -0.026931107 -0.04844153 -0.31023785 0.21225569 -0.09352511 -0.06072852 0.06559491
-6.218507 1.2152048 3.6808221 1.6603742 -5.925869 -1.2133648 -0.2817121 0.90991604
-8.690839 1.7560397 4.6435084 0.1986973 -2.8020096 -0.3082765 2.8344955 1.2238905
-13.037751 3.108087 6.222089 0.32448867 -4.1216736 -0.25242263 3.6202128 1.9136322
-0.25895333 0.08860477 -0.27764234 -0.17673527 0.15879667 -0.24990404 0.31636807 0.30889797
-4.346157 0.92867106 2.596918 1.8448212 -5.6045203 -2.9162657 0.15544364 0.94541764
-3.461179 0.4105931 1.8292313 0.98544294 -4.175548 -0.3098902 -0.4079521 0.714099
-5.307135 1.4413915 2.5481093 0.29017913 -2.9368901 0.08315291 0.26533735 1.175775
0.32268322 0.09260017 -0.24198054 -0.11845615 -0.2814898 0.0236496 0.042251438 -0.21892036
2.5371003 -0.2601525 -1.3107306 0.28460804 0.41826978 -0.285508 -0.6220346 0.07444005
0.9689911 -0.37269378 -0.9262101 1.3118376 1.7278479 -3.3257725 -2.1049612 -0.39149368

bias f4 [150]
00000000: cdbd 953d fad2 1ebe e03d 653d 9958 57bb
00000010: a6a3 633e 81ff 66bd 9a37 5abe 75fd 893e
00000020: 3b22 64be e20e f2bd 3499 f23d d47b 2fbe
00000030: 8265 64be baf8 b33e 4b64 9cbe e5a1 adbe
00000040: 1553 b0bd 5899 2a3e e4df 923d 4d99 cc3e
00000050: 53c5 b43e 5494 fd3d 8c54 21be 3e95 b23d
00000060: aa3f 7c3e cb45 fc3d 098a a8bc 4512 b43d
00000070: 13d6 66be 3d38 74bd b4dc 67be 1fd3 f9bd
00000080: 26d2 9dbe 802e 253e 90d8 a03d 9b9b d63c
00000090: 7c7d f1bc 54d4 cf3b 285a 9cbc 2a6f 01be
000000a0: 6ee3 0b3e 10da 3dbd b06f 6a3d 996e babd
000000b0: a69d 1e3e 19ca f6bd bc3d 00bd ba71 78be
000000c0: e15c aebe 7ae7 68be 61d0 87bd a9a1 1dbe
000000d0: 0972 3abe 33ff aebe 2cf6 33be 9b5f 343e
000000e0: 0157 acbe f29c 463e 473c d1bc 06c1 19bd
000000f0: a8b7 93be 64d8 4a3e 3e26 aebe 967e 573e
00000100: 5b5b d63d 034a 48bd 0e6a 543d b4c9 56ba
00000110: 6b41 523e 7ffe 783e f02f 58be 00ef 2ebb
00000120: a6f2 3fbe 266e 4c3e 20f0 46bd b7dd 273e
00000130: f8a3 973e 43f1 323d cf0e f73d 5804 95be
00000140: f037 65be fe2f aebe 4c95 113e 3a5b 843b
00000150: 0fdb adbe 6cd4 50be 4273 333e ec20 2e3e
00000160: 00cc 47be f3e2 623e 7e32 09bc b9ff 16be
00000170: 66e1 c53d c358 133e 835d 29be 3c90 56be
00000180: 2df4 9abd 6f14 eabd b072 7f3e cded 2fbe
00000190: b944 c43d cc57 133c ab6b b43e 4682 87be
000001a0: 6793 8ebe 2da8 4b3e a20e 45be 057b c73d
000001b0: 4bb7 863e ddaa bcbd 3f08 ac3e 014e ae3d
000001c0: aeb7 23bd 50f2 e1bd a732 a0bd c4bd 8e3e
000001d0: e19d 77be 8530 6bbe d4ac c4bd 1ce0 58be
000001e0: 4708 013e 226f 313e 060d 09be ffa1 99bd
000001f0: 048b 57bd 069c 4a3e b00a 1ebe 0994 e6bc
00000200: bc80 5dbe 27cb e13d 544f ac3e bb5a f73d
00000210: 5587 abbe 6d98 2ebe 48ea 5d3d a664 0cbe
00000220: e357 9cbe f34f 01bc 078e 603e bcc2 293e
00000230: 2d58 e93d d2ba aebd f3a9 a43e 17cb 023e
00000240: 75ce 57bd 3270 3dbe 82e0 0abd 3110 b63e
00000250: 1d38 94be 391e 83bd
0.07311592 -0.15510169 0.05596721 -0.0032859205 0.22230396 -0.05639601 -0.21310273 0.26951185
-0.22278683 -0.11819245 0.118456274 -0.1713708 -0.22304347 0.351507 -0.30545267 -0.33912578
-0.08609597 0.16660058 0.0717161 0.3996071 0.35306796 0.12381807 -0.15754908 0.08719872
0.24633661 0.123179995 -0.020573633 0.08792547 -0.225426 -0.059623946 -0.22642785 -0.12198471
-0.30824393 0.1613102 0.07853806 0.026197245 -0.02947878 0.00634245 -0.019085959 -0.12640062
0.13660976 -0.04635054 0.05723542 -0.09103126 0.15489826 -0.12050266 -0.031308874 -0.24262133
-0.34055236 -0.22744551 -0.06631542 -0.153937 -0.18207563 -0.34179077 -0.17574376 0.17614596
-0.3366013 0.19395807 -0.025541438 -0.037537597 -0.28851056 0.19809109 -0.3401355 0.21044382
0.104666434 -0.048898708 0.051858954 -0.0008193508 0.20532767 0.24315833 -0.21112037 -0.0026692748
-0.18744907 0.19963893 -0.048568845 0.16393171 0.29617286 0.043687116 0.120633714 -0.29104877
-0.2238462 -0.3402099 0.14217108 0.0040391954 -0.3395619 -0.20393533 0.17524436 0.17004746
-0.19511414 0.22156887 -0.008373855 -0.14745988 0.09662132 0.14389329 -0.16539578 -0.20953459
-0.07566104 -0.11429679 0.24946094 -0.17180558 0.0958342 0.0089931 0.35238394 -0.26466578
-0.27846834 0.19888373 -0.19243863 0.09740261 0.26311716 -0.09212277 0.3360004 0.08510972
-0.039970092 -0.110325456 -0.07822161 0.27879155 -0.2418132 -0.22967727 -0.09603277 -0.21179241
0.12600814 0.1732755 -0.13383874 -0.075016014 -0.05262281 0.1978608 -0.15433764 -0.02814676
-0.2163114 0.11025076 0.33654273 0.12077852 -0.33501688 -0.17050333 0.054178506 -0.1371027
-0.30535802 -0.007892597 0.21929179 0.16578192 0.11393771 -0.08531727 0.3216091 0.12772785
-0.052687127 -0.1849983 -0.033905514 0.35559228 -0.2894906 -0.06402249

weight f4 [128, 150, 1]
00000000: f95a b0bc b26d 67bd 1606 49bd 70aa 8bbd
00000010: c659 8bbd 9271 ecbc eb01 443d 8bb0 cb3a
00000020: c5b5 fa3c 20f7 023d 127e d93c 6adc a9bc
00000030: dcb8 d93c d5c3 0b3c 779d 7cbd 8787 83bd
00000040: d459 14bd 4e68 3fbd 0e16 953d 0b53 1bbd
00000050: e0ff 43bc 98f1 a4bc f0a8 02bd 1fb0 2b3d
00000060: d376 80bb 1251 0ebd 2e70 9d3c 1747 6d3b
00000070: 4565 57bd ae1a 8e3b fa23 8d3d 3725 733d
00000080: 577e 88bd 26f5 3339 8bd4 af3b 2bfb 653d
00000090: a3d3 9bbd ec92 a4bb e8eb 3d3c 7118 05bd
000000a0: 5792 9fbc 6081 2a3c de11 27bd 34b6 64bd
000000b0: 30cb 9b3c d30f 8bbd 1d35 73bd 384b 9e3c
000000c0: 3f5e 02bb 87a8 883d c331 2a3d 9e95 28bd
000000d0: f7f3 1fbd bb34 85bd e2da 9abd 1d7f 3e3d
000000e0: 60b4 853c 5ce4 313d 3616 31bd f1ad 66bc
000000f0: 7cb0 0d3d c064 adbc 8034 e73c 4f0f 733c
00000100: 23fc 0a3c 7aa5 46bd 1ea8 2bbd aa7c 413d
00000110: 74ab 823d 7a67 273d 9193 5dbd d6e5 c5bc
00000120: 8c3d f13c 3796 2e3d 3ce9 96bd d6f2 2e3c
00000130: 6ff4 0dbd 7cc7 ab3d 5516 84bd e92d b03c
00000140: 12d5 1d3d 8c02 fabc 27c9 d33c e414 9bbd
00000150: 2f30 fbbc 6333 923d 59a1 093c 1e87 c7bc
00000160: 402f 983c 62d2 503d b978 c3bb d359 a73d
00000170: cdd3 28bd d2aa 173d 5683 873d e8da 4d3c
00000180: a9eb 9bbd 1214 67bc 136f cf3a 70ac 82bd
00000190: a378 5b3c e7ea 433d 14c9 333d 0e73 80bd
000001a0: 80ed 283d 0e2c 883d efad 89bd 3ef6 90bd
000001b0: cd8a fabc f3aa 3c3d e109 99bd cce0 6c3c
000001c0: 4c47 a9bc 24b6 77bd 4d8d 3cbd 518d 193d
000001d0: 64c3 473a 8558 b93d 38d9 77bd b97d 723d
000001e0: dca5 fe3c 00a7 06bd b16f f43c f7c2 5fbd
000001f0: c1f4 24bd acd0 86bc 2127 9dbd 003e 583d
00000200: ec89 32bd 685a a2bd 27c2 d83c eaa0 293b
00000210: 1910 70bd cbd5 5dbc 7530 80bd 3e6e 95bc
00000220: e1a5 13bd 0ac6 2ebd 040e 123d 16e0 c1bd
00000230: a4a8 70bd 077b a23d 0787 74bd d9e9 e33c
00000240: 8af8 093c 71e8 2a3d a2aa 753d f081 473d
00000250: 0043 293d 42c7 35bd bf98 cc3d 2c76 633d
00000260: 2ec2 563b f88f f73d 98c9 953c 4813 f23c
00000270: fd3e 8abd b0a9 28bb afb9 a43b 7c79 bf3d
00000280: 5c09 72bd 8a65 8f3d d44a 493d 6cde a1bd
00000290: f624 843d 8c2e 983d 2ba8 32bd 9f53 6a3e
000002a0: 0090 e33b 618b f33d b041 f4bb 3a95 903d
000002b0: 5b2f 993d 1acd eb3d 29a3 a43d 8a82 d5bc
000002c0: 30b9 303e f2f5 e93d 52f2 f83d ffb4 bdbb
000002d0: 8142 9a3a 3fd3 dfbe 8e7f 333e d9c4 953d
000002e0: c475 3abe cd25 8ebd 12b8 113e 545f 3b3d
000002f0: b461 c5be c10a da3d 1e77 103e c4ab 0cbd
00000300: 2803 693d 9799 85bd f4a1 8b3d ce3a 013d
00000310: 04e3 b7bb 24d1 6a3d 2763 c83a e7ca 073e
00000320: 9f56 103e 9186 1a3a fd4c 46bd 3280 0d3e
00000330: 2ae7 2f3d 02c2 e33d a0d1 853d 133d 343c
00000340: 48d5 743e 35a6 453d 2833 7c3d a293 1c3d
00000350: 4486 503d 0f57 1b3d e8d7 ef3d baeb ac3c
00000360: 8001 87be 483c 853d 42b3 343e 0a3e 363d
00000370: 1721 1fbe 5891 923c 3af7 8a3c e0fc e93d
00000380: 40c0 583d 3978 f43d 692e 0a3e ad9f 37bd
00000390: e23e dcbd a16d b2bc 214a 62be aa49 96bd
000003a0: 6ed0 50bc cbe4 d23c b90b 87bd 4551 aebc
000003b0: 1c9d 34bd a2f9 9c3d 1263 c93c 0d4d d93c
000003c0: 5d02 88be a491 8d3d e7f4 11be 35b8 34bc
000003d0: 400d 5c3d aafe 653e 3b44 343e a7eb 863d
000003e0: 6a1c 173d b6b8 053c 99e1 7fbc 457e 5b3d
000003f0: 035a 9abd b08a 89bb 3175 7abe 89f6 673d
-0.021527754 -0.056501098 -0.04907807 -0.06819618 -0.06804232 -0.028862748 0.04785339 0.0015540285
0.030604253 0.031973958 0.026549373 -0.020734984 0.026577406 0.008530577 -0.061673608 -0.06422334
-0.03621848 -0.046730332 0.07279597 -0.037920993 -0.011962861 -0.020134732 -0.031899393 0.04191601
-0.003920415 -0.034745283 0.01921853 0.0036205703 -0.052586813 0.0043366766 0.068916276 0.059361663
-0.066647224 0.00017162095 0.0053659133 0.056147736 -0.07608726 -0.0050223973 0.011591889 -0.032494012
-0.01947896 0.010406822 -0.040788524 -0.055837825 0.019017786 -0.067901276 -0.059376825 0.019322976
-0.00198926 0.06672769 0.041551363 -0.04115831 -0.039051022 -0.06504198 -0.0756128 0.046507943
0.016321361 0.04343067 -0.043234073 -0.014079557 0.034592137 -0.021166205 0.028223276 0.014835193
0.008482966 -0.048497654 -0.041908376 0.04723803 0.06380358 0.040870167 -0.05409581 -0.024157446
0.029448293 0.042623725 -0.07368705 0.010678014 -0.03465694 0.08387658 -0.06449572 0.021506267
0.038533278 -0.030518793 0.025852753 -0.07572344 -0.030662624 0.071387075 0.008400285 -0.024356421
0.018577218 0.050981887 -0.005965319 0.081714295 -0.041217614 0.03702814 0.06616847 0.012564398
-0.07613308 -0.014103906 0.0015825949 -0.06380546 0.013395461 0.047831442 0.043892935 -0.06271945
0.041242123 0.06649028 -0.06722628 -0.07078217 -0.030583763 0.046061467 -0.074725874 0.014457893
-0.02066388 -0.060476437 -0.046033192 0.037488285 0.0007620363 0.09050087 -0.06050989 0.05920193
0.031084947 -0.032874107 0.029838415 -0.054629292 -0.040272478 -0.016456924 -0.07673479 0.052793503
-0.043588564 -0.079274 0.026459767 0.0025883266 -0.058609102 -0.013539742 -0.062592424 -0.018241044
-0.036046866 -0.042669334 0.035657898 -0.09466569 -0.05875458 0.07933622 -0.059699085 0.027821468
0.008421073 0.04172558 0.05997718 0.048707902 0.04132366 -0.04437948 0.099900715 0.05553262
0.0032769549 0.12088007 0.018284604 0.02955021 -0.06750295 -0.0025735907 0.005027018 0.09349343
-0.059090957 0.07001789 0.049143627 -0.07903752 0.06452362 0.07430753 -0.04361741 0.22883461
0.0069446564 0.11891819 -0.0074541196 0.07059713 0.074797355 0.115137294 0.08038933 -0.026063222
0.17258143 0.114238635 0.12155594 -0.0057893987 0.0011769087 -0.43715855 0.17529127 0.07312936
-0.18208987 -0.06940804 0.14230374 0.04574521 -0.38551104 0.106465824 0.1410794 -0.034343496
0.056887776 -0.065234356 0.068179995 0.03155022 -0.005611779 0.05732836 0.0015288339 0.13260995
0.14095543 0.0005894686 -0.048413265 0.13818434 0.042945065 0.111209884 0.065341234 0.011000889
0.23909485 0.04825421 0.061572224 0.03822673 0.050909296 0.037924822 0.11711103 0.021108497
-0.26368332 0.06505638 0.17646506 0.04449276 -0.15539967 0.01789157 0.01696359 0.11425185
0.05291772 0.11936993 0.13494267 -0.044830013 -0.107541814 -0.02178079 -0.2209859 -0.07338269
-0.012745006 0.025743863 -0.06594033 -0.021278987 -0.044095144 0.07664801 0.024583373 0.026525998
-0.26564303 0.06912544 -0.14253579 -0.0110302465 0.053723574 0.22460428 0.17604153 0.06587916
0.036892332 0.008161714 -0.0156177515 0.053587217 -0.075366996 -0.004197441 -0.24458767 0.0566316

bias f4 [128]
00000000: 194d 843d 07a8 f53c dac8 913d f325 313d
00000010: 148b d93c 6e9f 2cbc 9a5f 4cbd b307 65bd
00000020: 2432 81bd 7243 b23d c0e4 a23d 7db0 37bc
00000030: 63d7 7d3d 7021 34bd f6b3 1fbd f178 95bd
00000040: a546 f43c 5b22 263d f005 893c 6af1 a53d
00000050: 7448 8c3c d979 53bd 4ea2 673b 208b 40bc
00000060: 752b 2cbd cd89 bfbc af33 65bd 9df1 e23c
00000070: c715 2abd 62be 02bd 4c7e 11bd 7393 a63d
00000080: dd03 dbbc 4929 bb3c 2631 503c 5109 c33d
00000090: dc03 4dbc 438b b03d a2bd 8d3d 7cb3 e13a
000000a0: bc23 ac3d 162f 1e3d 184a d6bc 3573 133b
000000b0: d285 f0bc 25bd 2b3d 7905 4b3d b52a 273b
000000c0: 88f3 78bd 4033 b6bc 7405 a93d f4da c93a
000000d0: 2d1b 8a3d 593d 023d 71c5 983d 6418 a43d
000000e0: f2b6 eb3c defd 233d c08f 8f3c 3a68 3dbd
000000f0: 9e70 21bb cadb 67bd 2792 79bc e793 1cbd
00000100: 3dbf 99bd d5d0 14bc 8424 2cbd 2bc9 5f3d
00000110: 53df 91bd b6a0 a13d 7cbb 8fbc 0093 e23c
00000120: e0c9 d33c fd03 fa3c 4a0e 9c3c 3911 633c
00000130: 6b20 803d b25c 74bc 93aa 383d 7f9e 90bd
00000140: 834c 1b3d c350 983d 4271 2f3d 66cd 803d
00000150: 9b2a 12bc 35ea 613d b236 823b a90a 3d3d
00000160: 1880 b8bc d195 6bbc a90e e63c e88d 74bd
00000170: 308b d1bc 9085 8dbd fc57 153d 6200 443d
00000180: 06ac d83c 43d0 22bd f59d 93bd 82d9 d8bc
00000190: cdf9 a43d 1b65 66bd 42e4 22bd 5ffa 233d
000001a0: a1ef 6abc 603e 823d 9480 c03c 7aaf 8bbd
000001b0: b791 47bd 9adb 60bd f0f8 85bd 8e43 94bd
000001c0: eac4 9b3d f10a 553c 1282 263d 1a66 7f3d
000001d0: 1ffa cd3d e9a9 06bd 6b02 3abc fac6 e43d
000001e0: 8522 c03d 415e 6a3d 7535 933d 76d4 80bc
000001f0: 1d40 d8bc 8dba fdbb 46fa 233b b4eb 83ba
0.06460018 0.029987348 0.071183875 0.04324908 0.026555575 -0.010536058 -0.04989586 -0.055915546
-0.06308392 0.087042704 0.07953787 -0.011211512 0.061972987 -0.0439772 -0.038989983 -0.07298458
0.029818842 0.040560108 0.016726464 0.08102687 0.017124392 -0.051629875 0.0035344544 -0.01175192
-0.04203363 -0.023381138 -0.055957492 0.0277031 -0.041524675 -0.031919844 -0.035520837 0.081335925
-0.02673524 0.022846835 0.01270703 0.09523261 -0.012513127 0.08620312 0.06920935 0.0017219628
0.08405253 0.038619123 -0.026158378 0.0022499089 -0.029360685 0.04192843 0.049565766 0.0025507633
-0.060779124 -0.022241235 0.08252993 0.0015400336 0.067434646 0.031796787 0.07459534 0.08012465
0.028773759 0.04003703 0.0175246 -0.046241976 -0.0024633775 -0.05660609 -0.015232599 -0.03822699
-0.07507179 -0.009082993 -0.04202701 0.054635208 -0.07122674 0.07891981 -0.017545454 0.027657986
0.025853097 0.03051948 0.019049782 0.013859087 0.06256183 -0.014914678 0.045084547 -0.07061481
0.037914764 0.07437279 0.04283262 0.06289177 -0.008921291 0.055154998 0.0039738053 0.046152744
-0.022522017 -0.014378981 0.028083162 -0.059705645 -0.025579065 -0.06910241 0.03646086 0.047851928
0.026449215 -0.039749395 -0.07207862 -0.026470903 0.08055458 -0.056248765 -0.039768465 0.040033694
-0.014339359 0.06359553 0.02349881 -0.06820579 -0.04872295 -0.05489693 -0.06541622 -0.072394475
0.07605918 0.013003097 0.04065139 0.06235323 0.100574724 -0.032876883 -0.011353116 0.11170764
0.09381584 0.057218794 0.071879305 -0.01572631 -0.02639776 -0.007743186 0.0025021 -0.0010064752

weight f4 [64, 128]
00000000: ff86 8dbc 5600 82bd e1c0 893d 7641 853d
00000010: 784e 9dbc 8d2c 833c 989e 79bd d813 90bd
00000020: 41c9 75bc 0d1b afbd 1f5c d7bc 2969 76bc
00000030: a469 6b3d 94cf 96bb cdee 3b3c 211f 04bd
00000040: 0066 793d 42f6 a53d ac0a 113d e505 a5bd
00000050: ca8e 29bd 3202 63bb 62d6 923d fa14 afbd
00000060: 1615 893d 153a 4d3d 59bf 633d e16a 8cbd
00000070: 36b1 293d 8d77 363d f983 5ebd e5dc 833d
00000080: 26a8 453d fcf7 86bd 5764 79bd 40c0 b2bd
00000090: 1a6a 893d 366f 60bd a571 103b 97b0 fb3c
000000a0: 7c74 5a3c c7d0 19bd 293c f439 c6d6 91bd
000000b0: 3328 c63b 566b 033d 57bc b2bd 1201 8abd
000000c0: 696a 24bd 422a 1abd c434 a73d e42b b2bd
000000d0: 059d 04bd 4bca f3bc 35ef 783d dfbb b03d
000000e0: cfcf b2bd 79e9 ec3c 1b4f 1dbd 52e7 5e3d
000000f0: 8cd7 99bc 6f3a e23c bb0d 953d c583 68bb
00000100: fcee 36bd fe21 99bd 6629 1cbd 797e 27bc
00000110: b2d1 b7bc 1408 c7bc 8438 8dbc b837 0bbd
00000120: ec6c d9bc 4506 243c f38e abbb aae2 9a3d
00000130: d7a9 99bd ee8e 7abd 7a4b 30bb e3f9 3ebc
00000140: 8e4a 42bd 09cf d63c 2303 f73b ef17 a23d
00000150: bc71 a03d 23d7 3cbd a9b3 9e3d d86a 72bd
00000160: 1070 953d 175b abbd 9752 4e3d 2b0f 8f3d
00000170: 2845 9fbc ee18 62bc 51a7 24bd effd 993d
00000180: 6ce1 2cbd 0978 80bd a961 98bd b9f8 d5bb
00000190: 095e 4c3c ed94 15bc 711d 82bc 8a65 8ebd
000001a0: 1d19 de3c 9c19 a8bd 6396 10bc ec80 05bc
000001b0: 1b9b 02bd b4dd e93c 755c 3abd 8a00 04bd
000001c0: f114 34bd 1c8b 7c3d 660b bfbc d82c 97bd
000001d0: 129a 2f3d cd1b 86bd 7377 1f3d ef14 9c3d
000001e0: 5874 dabc 92ef 973d cf80 3fbc 9f23 1d3d
000001f0: 7d97 ad3d 996b 253c 7f5d c93a 4795 253d
00000200: 256f 10bc 6263 483d d6c0 0b3d 718a b23c
00000210: 00bb bd3d c988 abbb 8af3 d53d 29a9 183d
00000220: f07b 4c3d 904c 9a3d 6eae 53bd c930 fd3d
00000230: 07f4 04bd e65f 963d ef44 1dbd 4ea8 debc
00000240: 3c19 86bc ea70 71bd 3c76 db3d 4e93 223d
00000250: e8a2 aebd 1077 983d 838d cd3d af9c 5abc
00000260: 8ef2 abbc 0af8 c1bc 07b1 a63d bc1d 0b3c
00000270: 893b 883d 0064 c33d cdec 733d 38a8 0b3d
00000280: c31c 8fbd 30af 3d3d 5b99 9b3d 7d40 bb3d
00000290: 6ca5 453d b638 233d bd06 38bd abec c83d
000002a0: 6e73 e33b ada9 40bd 1d99 f5bc 3872 353d
000002b0: 72ff 86bd 8792 7ebd 887b 093d 5b1a ae3d
000002c0: 2470 e03b 384a 913c 957e 263c 926f 863c
000002d0: 7bcd ee3d b637 223e a462 933d 265c 12bd
000002e0: e398 fe3d 22ee 40bd a922 32bd f062 82bc
000002f0: 7760 0f3e e362 8e3c 7b51 253d d9a0 b23d
00000300: fe13 c63d 9459 af3d e2d6 6d3d 374b 973d
00000310: a57f 30bd 92eb a63c 1864 183d 556c 9ebd
00000320: acb1 50bc 46a4 353d 58cc 363d d12d 27bd
00000330: 3768 05bc 53e9 a93d 3602 22bd cd4a 93bd
00000340: de3e ca3d 6910 d43d 5b15 b93d 1e44 4f3d
00000350: 05be c53a dde1 14bd c8c9 8d3d 6984 363d
00000360: fb19 d83d 9563 6fbc ee35 d13c d0e0 0e3e
00000370: e593 34bd 996a 0dbd 210d 3dbd 29a0 0dbd
00000380: 7fce 09be 14bc 8f3d 78a9 5abd 105f e5bd
00000390: 2448 eb3c 8f9e 81bd d487 df3b 3684 133d
000003a0: ccd0 d93d bebb f4bd 5922 c63d 1d71 a8bd
000003b0: 5444 0a3d cba8 233e 31ee 9b3e 4a34 b63d
000003c0: 53c8 4a3c 3d03 76bd 4263 b03d b4be c73c
000003d0: 1e65 913c 74d4 fb39 cc66 1d3e 5f8f e13d
000003e0: 4ccf 15bd c82f 3fbd a272 7d3d 2f5a 1abd
000003f0: 7eb1 ac3b e67b e6bb 6df7 a43c 9e37 13bd
-0.017276285 -0.0634772 0.06726242 0.06506626 -0.019202456 0.016012454 -0.060942262 -0.07035035
-0.015001596 -0.085500814 -0.026289044 -0.015039721 0.057473794 -0.004602382 0.011470509 -0.03225625
0.06088829 0.081036106 0.035410568 -0.08057765 -0.04139594 -0.003463876 0.071697965 -0.08548923
0.06693475 0.05010422 0.055602405 -0.06856323 0.041428767 0.044547606 -0.054325078 0.06438617
0.048256062 -0.06590268 -0.060886707 -0.08728075 0.067096904 -0.05479356 0.0022040394 0.030723853
0.013333436 -0.03755262 0.0004658413 -0.07121043 0.0060472726 0.032084785 -0.08727329 -0.067384854
-0.040140543 -0.037637956 0.08164361 -0.08699778 -0.032376308 -0.029759547 0.060775 0.086295836
-0.087310426 0.028919922 -0.03840552 0.054419823 -0.018779539 0.027615754 0.072780095 -0.0035478931
-0.044661507 -0.074771866 -0.038125418 -0.0102230245 -0.022438858 -0.024295844 -0.017238863 -0.033988684
-0.026541196 0.01001126 -0.0052355467 0.07562764 -0.075030975 -0.061171465 -0.0026900456 -0.011656257
-0.047434382 0.026221769 0.0075382157 0.07914721 0.07834193 -0.046103608 0.07749111 -0.059183925
0.07296765 -0.083669834 0.050371733 0.06985315 -0.019442156 -0.013799889 -0.040198628 0.07519137
-0.042207167 -0.06272895 -0.07440502 -0.006529894 0.012473592 -0.009129745 -0.01588318 -0.06952961
0.027111584 -0.082080096 -0.0088249175 -0.008148413 -0.0318862 0.0285481 -0.04549833 -0.032227077
-0.043965284 0.061656103 -0.023320865 -0.073816 0.042871542 -0.06548271 0.038932275 0.0762118
-0.026666805 0.07418741 -0.011688425 0.03836405 0.0847616 0.010096454 0.0015362947 0.040425565
-0.008815561 0.048922904 0.03411945 0.02179453 0.09264183 -0.005234812 0.10446842 0.0372707
0.049922884 0.075341344 -0.05168002 0.12362821 -0.032459285 0.0734251 -0.03839582 -0.027179863
-0.016369455 -0.058945574 0.10715911 0.039691262 -0.08527166 0.07444584 0.10036757 -0.01334302
-0.020989683 -0.023677845 0.08139234 0.008490976 0.066519804 0.09540558 0.059552003 0.034095973
-0.06987908 0.04630965 0.075976096 0.091431595 0.04825346 0.039849006 -0.0449283 0.09810766
0.0069412505 -0.047036815 -0.029980237 0.04429838 -0.06591691 -0.062151458 0.033565074 0.08501121
0.0068493057 0.017735586 0.010162015 0.016410623 0.11660286 0.15841565 0.071965486 -0.03573241
0.124315046 -0.0471021 -0.043490086 -0.015916318 0.14001642 0.017381137 0.04036091 0.087220855
0.09671782 0.085620075 0.058066256 0.07387393 -0.04309048 0.020376 0.03720483 -0.077355064
-0.012737673 0.044346116 0.04462847 -0.04081518 -0.008142523 0.08296456 -0.03955289 -0.071920015
0.09875272 0.103546925 0.09037276 0.05060207 0.0015086537 -0.036348213 0.06923252 0.04455987
0.105518304 -0.014611145 0.025538411 0.13952947 -0.044086356 -0.034525488 -0.0461551 -0.03457657
-0.13457678 0.07018295 -0.053384274 -0.11199772 0.028720923 -0.06329071 0.006821612 0.036014758
0.10635528 -0.119498715 0.0967452 -0.082247 0.03375657 0.15982358 0.30455163 0.08896692
0.012376863 -0.060061682 0.08612682 0.024382927 0.017748412 0.0004803274 0.15371245 0.11013674
-0.036574647 -0.046676427 0.0618769 -0.037683662 0.005270182 -0.007033813 0.020137513 -0.035941713

bias f4 [64]
00000000: 916c 2d3d 2898 9a3d 08f9 73bd 6822 84bd
00000010: a544 a0bd 8913 1bbc 8aae 313b 72d6 54bd
00000020: c989 963d a655 acbd 7543 80bd 68ee a33b
00000030: 1623 0d3d 3db7 97bd 3d0c 6c3d f811 063b
00000040: a0af e83b abf4 dabc 8602 1cb9 ea14 a5bd
00000050: 2dd7 f7bc 56c9 2ebd 97fe 7c3b add0 a4bd
00000060: fdf4 74bd 2e00 93bd 45f4 b03d 1e25 80bd
00000070: 9931 98bd 6de7 583c 2afd 9dbd c5cb c13d
00000080: 6070 08bd ba6e 2d3d f706 6c3d 3f76 7e3d
00000090: c07a 7f3d 40db b7bc 78be 973c b66f 9cbd
000000a0: a9d1 97bd bd5a 0e3b 9e18 053d b1ff b33d
000000b0: e817 3cbd fcd8 91bc eda7 8e3d 4dc7 a63d
000000c0: d465 f1bc 13fb 8d3d db44 21bc c0da a93c
000000d0: 5e97 bbbc 8dda 3b3d c1e6 103d de7a 9cbd
000000e0: 368e 6bbd a586 b13d ef98 b3bd f696 183c
000000f0: 28e3 94bd 4342 a6bd eadc ba3c c349 12bd
0.042339865 0.07548553 -0.059563667 -0.06451875 -0.07825593 -0.009465107 0.002711209 -0.051962323
0.07350499 -0.08414774 -0.062628664 0.0050027855 0.03445729 -0.07407997 0.05762886 0.0020457488
0.0071010143 -0.026727995 -0.0001487826 -0.0806063 -0.030253971 -0.042672478 0.0038603896 -0.08047614
-0.05980395 -0.07177769 0.08640341 -0.062570795 -0.07431335 0.01323877 -0.07714303 0.09462694
-0.033310294 0.042341925 0.05762383 0.062124487 0.062372923 -0.022443414 0.01852344 -0.07638495
-0.074130364 0.0021721565 0.03249418 0.08789004 -0.045921236 -0.017803662 0.06965623 0.08143482
-0.0294675 0.06932654 -0.009843077 0.020734191 -0.022899326 0.045862723 0.035376314 -0.076406226
-0.05750867 0.086682595 -0.08769404 0.009313336 -0.07269889 -0.08118107 0.022810418 -0.035714876

weight f4 [1, 64]
00000000: 4145 cdbb 8289 ab3e cece 42bd 772d 453f
00000010: 3137 703e af60 873e a6b1 803f 6b68 f63d
00000020: f784 bebe 2205 f8bd fe0a d83e ce18 983e
00000030: 2e0f 7abe e3f6 99be 8d8b 0cbf d475 51be
00000040: 7532 92be e32e 5cbf 0135 503f b445 cbbd
00000050: bc91 a7be 2423 dd3e 3ce1 8e3e 567c 9cbd
00000060: cf3d 9abe 3f7d 303d 73e1 393e e2a6 753f
00000070: d8a1 523f 792c 693b 5c09 933e 4e5d 253f
00000080: 9d59 fa3d a48e 88be 6106 06bf bac1 e03e
00000090: 3672 2ebf e0d0 f33d bf98 1c3f ae5f 0bbf
000000a0: 0386 9d3e e89b 7c3d ac2d ba3e 875f 453e
000000b0: a0e4 89bd 7315 6bbf 8237 53bf a9af e7be
000000c0: 2133 163e bfe0 f33e 3b20 0ebf 3cb7 b8bd
000000d0: 9a16 aa3e 5041 b9be d588 223f e721 07be
000000e0: 1151 eb3e 3821 4d3c c6ef 5cbf 452c 3d3f
000000f0: ff9a 2abf 3f44 b53e 2792 9d3e c045 d8be
-0.006264359 0.33503348 -0.047560506 0.770225 0.23458554 0.2644095 1.0054214 0.12031635
-0.3721082 -0.12110354 0.42195886 0.29706424 -0.24419853 -0.30071172 -0.5490044 -0.20455104
-0.2855412 -0.86009043 0.8133088 -0.09925404 -0.32728374 0.43190873 0.27906215 -0.07640903
-0.3012528 0.043088194 0.18152408 0.9595777 0.82278204 0.0035579486 0.28718078 0.64595497
0.122241236 -0.26671326 -0.52353483 0.43897802 -0.6814302 0.11905074 0.6117057 -0.5444287
0.30766305 0.06167212 0.3636297 0.19274722 -0.0673306 -0.91829604 -0.82506573 -0.45251206
0.14667942 0.47632405 -0.5551793 -0.09019324 0.3322037 -0.36182642 0.6349004 -0.13196526
0.45960286 0.012520127 -0.86303365 0.73895675 -0.66642755 0.3540363 0.30775568 -0.42240715
